…
  np_resource = np.dtype([("resource", np.ubyte, 1)])
/home/soup/sumo-0.32.0/tools
Using TensorFlow backend.
2021-07-06 18:55:40.373501: I tensorflow/core/platform/cpu_feature_guard.cc:141] Your CPU supports instructions that this TensorFlow binary was not compiled to use: AVX2 FMA
__________________________________________________________________________________________________
Layer (type)                    Output Shape         Param #     Connected to                     
==================================================================================================
input_map_feature (InputLayer)  (None, 150, 150, 1)  0                                            
__________________________________________________________________________________________________
conv1 (Conv2D)                  (None, 38, 38, 32)   2048        input_map_feature[0][0]          
__________________________________________________________________________________________________
bn1 (BatchNormalization)        (None, 38, 38, 32)   96          conv1[0][0]                      
__________________________________________________________________________________________________
act1 (Activation)               (None, 38, 38, 32)   0           bn1[0][0]                        
__________________________________________________________________________________________________
max_pooling2d_1 (MaxPooling2D)  (None, 19, 19, 32)   0           act1[0][0]                       
__________________________________________________________________________________________________
dropout_1 (Dropout)             (None, 19, 19, 32)   0           max_pooling2d_1[0][0]            
__________________________________________________________________________________________________
conv2 (Conv2D)                  (None, 10, 10, 16)   8192        dropout_1[0][0]                  
__________________________________________________________________________________________________
bn2 (BatchNormalization)        (None, 10, 10, 16)   48          conv2[0][0]                      
__________________________________________________________________________________________________
act2 (Activation)               (None, 10, 10, 16)   0           bn2[0][0]                        
__________________________________________________________________________________________________
max_pooling2d_2 (MaxPooling2D)  (None, 5, 5, 16)     0           act2[0][0]                       
__________________________________________________________________________________________________
dropout_2 (Dropout)             (None, 5, 5, 16)     0           max_pooling2d_2[0][0]            
__________________________________________________________________________________________________
input_cur_phase (InputLayer)    (None, 1)            0                                            
__________________________________________________________________________________________________
flatten_1 (Flatten)             (None, 400)          0           dropout_2[0][0]                  
__________________________________________________________________________________________________
input_next_phase (InputLayer)   (None, 1)            0                                            
__________________________________________________________________________________________________
input_num_of_vehicles (InputLay (None, 12)           0                                            
__________________________________________________________________________________________________
input_queue_length (InputLayer) (None, 12)           0                                            
__________________________________________________________________________________________________
input_waiting_time (InputLayer) (None, 12)           0                                            
__________________________________________________________________________________________________
all_flatten_feature (Concatenat (None, 438)          0           input_cur_phase[0][0]            
                                                                 flatten_1[0][0]                  
                                                                 input_next_phase[0][0]           
                                                                 input_num_of_vehicles[0][0]      
                                                                 input_queue_length[0][0]         
                                                                 input_waiting_time[0][0]         
__________________________________________________________________________________________________
hidden_shared_1 (Dense)         (None, 20)           8780        all_flatten_feature[0][0]        
__________________________________________________________________________________________________
hidden_separate_branch_0_1 (Den (None, 20)           420         hidden_shared_1[0][0]            
__________________________________________________________________________________________________
hidden_separate_branch_1_1 (Den (None, 20)           420         hidden_shared_1[0][0]            
__________________________________________________________________________________________________
q_values_separate_branch_0 (Den (None, 2)            42          hidden_separate_branch_0_1[0][0] 
__________________________________________________________________________________________________
selector_0 (Selector)           (None, 1)            0           input_cur_phase[0][0]            
__________________________________________________________________________________________________
q_values_separate_branch_1 (Den (None, 2)            42          hidden_separate_branch_1_1[0][0] 
__________________________________________________________________________________________________
selector_1 (Selector)           (None, 1)            0           input_cur_phase[0][0]            
__________________________________________________________________________________________________
multiply_0 (Multiply)           (None, 2)            0           q_values_separate_branch_0[0][0] 
                                                                 selector_0[0][0]                 
__________________________________________________________________________________________________
multiply_1 (Multiply)           (None, 2)            0           q_values_separate_branch_1[0][0] 
                                                                 selector_1[0][0]                 
__________________________________________________________________________________________________
add_1 (Add)                     (None, 2)            0           multiply_0[0][0]                 
                                                                 multiply_1[0][0]                 
==================================================================================================
Total params: 20,088
Trainable params: 19,992
Non-trainable params: 96
__________________________________________________________________________________________________
…
